big_sister/model_data.pth (torch, 4902 bytes, 6 tensors)

layer1.weight f4 [8, 37]
00000000: 3d5b 91be 3f23 a93e d734 e63e dfc0 b83e
00000010: 9f57 06bf 3a32 8e3e f30a 4d3d 1a23 893e
00000020: c268 df3e 20d7 883e 49e5 a03e 93a5 06bf
00000030: e36e ca3e 0843 183f 2bd9 633e 5fad 0c3f
00000040: dbd4 b93e 5906 c63e 2629 c43e c4ec bd3e
00000050: 49c8 33be 63a6 2abd 749c e23e 5be8 6f3e
00000060: a900 cbbe ebf9 163e a77c 0abf c567 aabe
00000070: 2cff 963e 70be 103e 98c4 023e 300e 0b3f
00000080: b7fa a63e 0029 6bbc 57ac c33e af05 483d
00000090: 1123 0c3e a5b5 a8be f42a e7be 5cb0 3f3d
000000a0: 146d c83c 4063 313f 2832 32bd 19c6 c4be
000000b0: b055 b9bd 9509 4b3e e484 383d 51c4 7dbe
000000c0: aede 163f d663 1b3f b9af 693e 071c 363d
000000d0: e60b 823e 8e26 183c a6ea d03e 341a 293f
000000e0: bd57 493e defd bd3e de08 93be 9adb 223e
000000f0: 6e36 f93e 54f6 003f 37b7 8dbd b55e fabe
00000100: 2cd9 34be fb40 053e 5be0 a8be aefc 903d
00000110: a5a6 e93e 697f d73d f9db 4bbd ac57 bd3d
00000120: abdd 2e3d acc4 cc3c 55bb a73e 2101 153e
00000130: 6a82 36be f299 43be ffa6 e23d 5a05 383e
00000140: 84fe 7c3e 5d3c 903e 121f babe 1942 8a3e
00000150: cc49 e8bd 656a 5d3e 0538 4cbe fd55 f5be
00000160: d4ff 2f3f deab f5be b64f dcbd 56a7 d83e
00000170: 72f9 03be 6627 18bd 97ba 3b3e a8a3 3b3e
00000180: cfa7 213f 7073 8f3e 5a89 783e d5dd 673e
00000190: 0069 553f 247a c93e ac01 80be 1378 ab3e
000001a0: 7d69 7d3e 823a ddbd b692 703e ff45 9b3e
000001b0: 0d03 023f 15bc 1f3d 5f91 7b3e 2e1e d23d
000001c0: 990c 283f f510 113f 3964 863e 7d5b 90be
000001d0: bbb3 adbd b4db 013f d213 193e 3ee3 9f3e
000001e0: 497d 4b3d 5fa0 043f 6cc5 8ebe 5c10 5fbe
000001f0: b7cc 343f 481e 4e3e 205b 4d3f 4f6f 54b9
00000200: bb6c af3d 9ed7 e6bd d4c7 ad3e c0e4 d0be
00000210: ef5a f93d 8716 d13e 12b2 b6be a0b1 bebe
00000220: 370b a13e 9747 c63e 63d3 303e 7d9a f83e
00000230: 8940 c43e 4a6f 45be ca77 9e3e 33a6 d73d
00000240: c126 fb3d a249 283e e9fe 003f e44d a0be
00000250: 5340 053f 47d5 3e3e 7f8b fbbc 0ef4 92be
00000260: 520b 693e b921 1cbe 8b6a 463e c015 463e
00000270: ea14 31be 04bf 2e3d ae34 c9bd 4051 5e3e
00000280: 30a4 b7bd a5dc 98be 7045 2f3f 6090 99be
00000290: cef1 5bbe 7305 873d 8f45 95be 732b fabd
000002a0: 14f1 0c3e 302c 1c3e dcd3 073f d8d0 1fbd
000002b0: 8943 2bbe 22ae 773e bd3e 803f 7756 d23e
000002c0: 101d f8bd a945 983d bb38 0ebe 6cf5 5f3d
000002d0: 5cbd 843d be1d 7c3e fe1a 163f ce75 a33e
000002e0: 912c 42be 249f 01be 1c9c 353f 4255 3a3e
000002f0: 229c 8f3e f2ae d4be e45b 6ebe 6acd 3d3f
00000300: 252a a6bd 918c 923e d38a 1cbe 6b13 223f
00000310: 9b57 d4be c5a7 2b3f 2860 393f 240e bebd
00000320: a1db 053f 3820 093e e5ce 3d3e 6356 193f
00000330: 853a ee3e 11c7 b2be a496 e53e 0a19 9c3e
00000340: 7952 0e3b 43a7 a0be 8f85 223e a7cb 13bf
00000350: 32c0 20be 5208 d23e a8a7 7e3e 5e67 73be
00000360: 6cad 213f 1c8c 8dbd 9afc e73e f985 dd3d
00000370: 9023 803e b542 283d 5429 463e e0ea 123f
00000380: 9246 803e 5c16 633a 6e48 5b3e aeff c9bd
00000390: b8c2 e13e 0d92 a7be 22c0 453e 41a9 c3bd
000003a0: c171 a63e 8e47 cb3d 7cae 06be 894f 163f
000003b0: 35d4 a33d 3e4c 0a3f 932a 5f3d 96f7 e2bd
000003c0: 05bf 6abe 1d5b da3e dae0 2b3e 2f29 5d3e
000003d0: 99da d33c 31a1 9dbe 74f1 2b3e 418f 673e
000003e0: 618d 263e 4410 033f 96dc ca3e 2116 793e
000003f0: f81f 58bd 6c01 9bbd e957 133b f04b 943e
-0.28389922 0.33034703 0.4496219 0.3608465 -0.5247745 0.27772695 0.05005927 0.26784593
0.4363461 0.26726627 0.3142493 -0.52596396 0.39537725 0.5947728 0.22250812 0.54952043
0.36295208 0.38676718 0.38312644 0.370947 -0.17556871 -0.041662585 0.4425999 0.2342848
-0.3964894 0.14743774 -0.54096454 -0.33282295 0.29491556 0.14135146 0.12770307 0.54318523
0.32613155 -0.014353037 0.38217422 0.048833545 0.13685252 -0.32951084 -0.45149958 0.04679905
0.024466075 0.6929207 -0.043504864 -0.38432387 -0.09049547 0.19827874 0.04504861 -0.2478192
0.5893353 0.6069921 0.22820939 0.044460323 0.25399703 0.009286536 0.40804023 0.6605561
0.19662376 0.37107748 -0.28717703 0.15904084 0.4867434 0.50375867 -0.06919711 -0.4890038
-0.1766097 0.1301307 -0.3298367 0.07079445 0.45634952 0.105223484 -0.04977033 0.09245238
0.042691868 0.024996124 0.3276011 0.14551212 -0.17823187 -0.19101694 0.11067008 0.17970791
0.24706465 0.28171054 -0.3635183 0.27003554 -0.11342201 0.21622618 -0.19943245 -0.47917166
0.6874974 -0.47982687 -0.10757391 0.42315167 -0.12888125 -0.03714695 0.18332897 0.18324149
0.6314668 0.2801776 0.24271145 0.22643216 0.8336334 0.39350998 -0.25001276 0.33490047
0.24747272 -0.10802175 0.23493466 0.3032684 0.50785905 0.03899773 0.24567173 0.102596626
0.6564422 0.566665 0.2624834 -0.281948 -0.084815465 0.50725865 0.14948967 0.3122806
0.049680028 0.51807207 -0.27884996 -0.21783584 0.7062487 0.20128739 0.8021717 -0.00020259361
0.085656606 -0.112715945 0.3394152 -0.40799522 0.12175547 0.408375 -0.35682732 -0.37244892
0.3145387 0.38726494 0.17268138 0.48555365 0.38330486 -0.19280735 0.30950767 0.10529747
0.12263251 0.16434339 0.5038896 -0.31309426 0.52051276 0.18636046 -0.030706165 -0.28701824
0.22758225 -0.15247239 0.1937658 0.19344234 -0.17293134 0.042662635 -0.09824501 0.21710682
-0.08966863 -0.29855838 0.6846533 -0.29992962 -0.2147896 0.06592836 -0.29154631 -0.122153185
0.13763839 0.15251231 0.53057647 -0.03901753 -0.16724981 0.2418752 1.0019146 0.41081592
-0.12114918 0.074351616 -0.13888828 0.054677412 0.0648143 0.2462072 0.58634937 0.31925815
-0.18962313 -0.12658364 0.7094133 0.18196586 0.28048807 -0.41539723 -0.23277241 0.7414156
-0.08113507 0.2862287 -0.15287332 0.6331088 -0.41473088 0.6705287 0.7241235 -0.09280041
0.5228825 0.13391197 0.18535955 0.5989744 0.46529022 -0.349175 0.44841492 0.30487853
0.0021716638 -0.3137761 0.15871261 -0.57732624 -0.15698317 0.41021973 0.24868643 -0.237699
0.63155246 -0.06911489 0.45309907 0.10816569 0.25027132 0.04107924 0.19351703 0.5738964
0.2505384 0.00086626946 0.21414348 -0.0986322 0.4409387 -0.32728615 0.19311574 -0.09553767
0.32508662 0.09925757 -0.13152498 0.5871511 0.0799946 0.54022586 0.05448396 -0.110823795
-0.2292443 0.4264764 0.16784993 0.21597742 0.025861071 -0.30787042 0.16791326 0.22613241
0.1626487 0.51196694 0.3962142 0.24324848 -0.052764863 -0.075686306 0.0022482818 0.28964186

layer1.bias f4 [8]
00000000: fa2b 063f 881b f13e 38a6 f43e 9fe1 8e3e
00000010: 079c 993e 7c68 d33e bfd8 5a3f e65d 463f
0.5241085 0.47091317 0.47783065 0.2790651 0.30001852 0.41290653 0.8548698 0.7748703

layer2.weight f4 [8, 8]
00000000: fa12 043f 3e0d d83e 7abd 953e b039 d9be
00000010: 8bb5 6abe c57f c63e 3c32 13bf 33b8 11bf
00000020: fd58 163f 2fbe 803e 33c1 273f 0478 e93e
00000030: e526 17be 34bc 373f 1591 12bf 4e78 59bf
00000040: 452e fc3e 0a58 93be bbef 513f 2877 0f3f
00000050: f478 833f 7067 84be accf d53d 613a 2ebf
00000060: 8e0d 393f 490a 593f b1dd 95be 41da 20bf
00000070: 07af d0be f80f 833e 5135 173f a023 4d3f
00000080: f279 2f3d acbd 00bf 0573 1c3f 2446 873f
00000090: 85b6 213f f2cd a63e ec33 ca3e 101c 0dbf
000000a0: fecd 3b3f fccf 4f3f 6656 af3e b683 0cbf
000000b0: df24 2ebe 7aed bc3d ef52 3fbf 9042 ebbe
000000c0: 2020 113f 8249 12bc 3b5d 39bf fb57 873f
000000d0: f42f 0cbf 2c57 a43f ed48 773f 72c4 303f
000000e0: f970 97bf 06dd af3e dca2 5c3f 0182 04bf
000000f0: 7c48 5a3f f1d1 88bf 27ef 7f3f ccac 383f
0.51591456 0.42197603 0.29246122 -0.42426825 -0.22920816 0.38769355 -0.57498527 -0.5692169
0.58729535 0.251451 0.65529174 0.45599377 -0.14760931 0.7177155 -0.5725263 -0.84949195
0.4925405 -0.28778106 0.82006425 0.56041193 1.0271287 -0.25860167 0.10440001 -0.6805783
0.7228631 0.8478132 -0.292707 -0.6283303 -0.40758535 0.2559812 0.5906573 0.80132484
0.042840905 -0.50289416 0.61113006 1.056828 0.6316913 0.32579 0.39492738 -0.55120945
0.73361194 0.81176734 0.34245604 -0.54888475 -0.17006253 0.092249826 -0.7473592 -0.4594922
0.56689644 -0.008928658 -0.72407883 1.0573725 -0.5476067 1.2839103 0.9659565 0.6904975
-1.1831352 0.34348315 0.86186004 -0.5176087 0.8526685 -1.0689069 0.9997429 0.7213867

layer2.bias f4 [8]
00000000: a22f 663e 753a 2abe 2a9f ab3d f663 3c3f
00000010: d30d 4b3e f732 7d3d 38a2 533e 2954 fd3e
0.22479108 -0.16623862 0.083799675 0.7359003 0.19829492 0.061816182 0.2066735 0.49478272

layer3.weight f4 [6, 8]
00000000: 888c 33bf 3788 37bf b9ae 04bf ff19 e63e
00000010: a2d1 8abe 6c0d 50bf 2375 813f 5280 99bf
00000020: fd45 03bf 69b1 03bf ace9 33bf 850b df3e
00000030: e820 aebf 0c7b 28bf 3928 c3bd 352e 633f
00000040: f68e 42bf 3005 8ebf 2bb1 1d3f 434e 8cbf
00000050: 6f21 463f 3b38 4abf 70bc 5dbf 9728 0b3f
00000060: a109 823e ac54 093e e58d c13e 0ea2 fbbd
00000070: c390 fa3d 1cbf 6e3e 664f 53bf ea24 40bf
00000080: 00b0 0b3f b9de 603e e3e5 e6bd 60f1 323d
00000090: 412b 4bbf 0b1b eb3e 60c8 efbd 345f 97bf
000000a0: 1f7f 9dbe adeb 883e 4204 713e 7908 57bf
000000b0: a04c c43e dd56 83bf 3265 4f3e 828c 74bf
-0.7013631 -0.7169222 -0.51829106 0.44941708 -0.27113062 -0.8127048 1.0113872 -1.1992285
-0.5127867 -0.5144258 -0.7027843 0.43563476 -1.3603792 -0.65812755 -0.09529156 0.8874238
-0.7599939 -1.1095333 0.6159846 -1.0961384 0.77394766 -0.7899205 -0.8661566 0.5435881
0.2539797 0.13411206 0.3780357 -0.12286769 0.12234642 0.2331509 -0.8254303 -0.75056326
0.5456543 0.21959962 -0.11274316 0.043687224 -0.79362875 0.4591907 -0.117081404 -1.1825929
-0.30761048 0.26742306 0.2353678 -0.83997303 0.3833971 -1.0260884 0.20253447 -0.955269

layer3.bias f4 [6]
00000000: 0839 c83d 0020 233e 7b83 5e3e 1c42 6b3e
00000010: d5c3 75be 8655 c7be
0.09776503 0.15930176 0.21729843 0.22974437 -0.24000485 -0.38932437
